…
2021-09-29 18:19:23.406942: W tensorflow/core/framework/op_kernel.cc:1767] OP_REQUIRES failed at conv_ops_3d.h:165 : Resource exhausted: OOM when allocating tensor with shape[128,126,126,62,64] and type float on /job:localhost/replica:0/task:0/device:GPU:0 by allocator GPU_0_bfc

Imported engine packages.
Start
Loading in scan data...
Read in data successfully.
Meta data set up.
There are 3 unique classes. -> [0 1 2]
Data has been preprocessed. Moving on to model...
Model: "3DCNN"
_________________________________________________________________
Layer (type)                 Output Shape              Param #   
=================================================================
input_1 (InputLayer)         [(None, 128, 128, 64, 1)] 0         
_________________________________________________________________
conv3d (Conv3D)              (None, 126, 126, 62, 64)  1792      
_________________________________________________________________
max_pooling3d (MaxPooling3D) (None, 63, 63, 31, 64)    0         
_________________________________________________________________
batch_normalization (BatchNo (None, 63, 63, 31, 64)    256       
_________________________________________________________________
conv3d_1 (Conv3D)            (None, 61, 61, 29, 128)   221312    
_________________________________________________________________
max_pooling3d_1 (MaxPooling3 (None, 30, 30, 14, 128)   0         
_________________________________________________________________
batch_normalization_1 (Batch (None, 30, 30, 14, 128)   512       
_________________________________________________________________
conv3d_2 (Conv3D)            (None, 28, 28, 12, 256)   884992    
_________________________________________________________________
max_pooling3d_2 (MaxPooling3 (None, 14, 14, 6, 256)    0         
_________________________________________________________________
batch_normalization_2 (Batch (None, 14, 14, 6, 256)    1024      
_________________________________________________________________
global_average_pooling3d (Gl (None, 256)               0         
_________________________________________________________________
dense (Dense)                (None, 512)               131584    
_________________________________________________________________
dropout (Dropout)            (None, 512)               0         
_________________________________________________________________
dense_1 (Dense)              (None, 3)                 1539      
=================================================================
Total params: 1,243,011
Trainable params: 1,242,115
Non-trainable params: 896
_________________________________________________________________
Fitting model...
Epoch 1/20
Traceback (most recent call last):
  File "AD_GenerateModel.py", line 148, in <module>
    history = model.fit(train_set, validation_data=validation_set, batch_size=128, epochs=epochs, shuffle=True, verbose=1)
…
